…
|  GPU   GI   CI        PID   Type   Process name                  GPU Memory |
|        ID   ID                                                   Usage      |
|=============================================================================|
|  No running processes found                                                 |
+-----------------------------------------------------------------------------+
Torch 1.1.0 CUDA 10.0.130
Device: cpu:0
----------------------------------------------------------------
        Layer (type)               Output Shape         Param #
================================================================
            Conv2d-1         [-1, 48, 126, 126]             432
            Conv2d-2           [-1, 64, 63, 63]          27,648
              ReLU-3           [-1, 64, 63, 63]               0
       BatchNorm2d-4           [-1, 64, 63, 63]             128
            Conv2d-5          [-1, 192, 32, 32]         110,592
              ReLU-6          [-1, 192, 32, 32]               0
       BatchNorm2d-7          [-1, 192, 32, 32]             384
   ConvTranspose2d-8          [-1, 128, 63, 63]         221,184
              ReLU-9          [-1, 128, 63, 63]               0
      BatchNorm2d-10          [-1, 128, 63, 63]             256
  ConvTranspose2d-11         [-1, 64, 126, 126]         131,072
             ReLU-12         [-1, 64, 126, 126]               0
      BatchNorm2d-13         [-1, 64, 126, 126]             128
  ConvTranspose2d-14          [-1, 1, 128, 128]             576
             ReLU-15          [-1, 1, 128, 128]               0
      BatchNorm2d-16          [-1, 1, 128, 128]               2
================================================================
Total params: 492,402
Trainable params: 492,402
Non-trainable params: 0
----------------------------------------------------------------
Input size (MB): 0.06
Forward/backward pass size (MB): 51.39
Params size (MB): 1.88
Estimated Total Size (MB): 53.33
----------------------------------------------------------------
generative network: None
----------------------------------------------------------------
        Layer (type)               Output Shape         Param #
================================================================
            Conv2d-1          [-1, 8, 127, 127]              32
            Conv2d-2          [-1, 8, 125, 125]             576
       BatchNorm2d-3          [-1, 8, 125, 125]              16
            Conv2d-4           [-1, 12, 62, 62]             864
       BatchNorm2d-5           [-1, 12, 62, 62]              24
            Conv2d-6           [-1, 16, 30, 30]           1,728
       BatchNorm2d-7           [-1, 16, 30, 30]              32
            Conv2d-8           [-1, 20, 14, 14]           2,880
       BatchNorm2d-9           [-1, 20, 14, 14]              40
           Conv2d-10             [-1, 24, 6, 6]           4,320
      BatchNorm2d-11             [-1, 24, 6, 6]              48
           Linear-12                  [-1, 256]         221,440
           Linear-13                  [-1, 128]          32,896
           Linear-14                   [-1, 64]           8,256
           Linear-15                    [-1, 1]              65
          Sigmoid-16                    [-1, 1]               0
================================================================
Total params: 273,217
Trainable params: 273,217
Non-trainable params: 0
----------------------------------------------------------------
Input size (MB): 0.06
Forward/backward pass size (MB): 3.89
Params size (MB): 1.04
Estimated Total Size (MB): 5.00
----------------------------------------------------------------
descriminator network: None
…
